Pima_Indians_Diabetes_Database/checkpoint/best-0.580.pth (torch, 5478 bytes, 6 tensors)

weight f4 [16, 8]
00000000: 0684 96bd 60d9 b43e 5258 84be 9c18 223e
00000010: 19ee bdbd 9e08 40bd 726c c43e 49c0 92be
00000020: 892e 213e 87ba 8c3e 5443 853e a3f4 d5bd
00000030: 87d1 b8bc 8137 683e cae1 a1be aae0 85bd
00000040: c3c6 7e3d d516 36bd 5eeb a6be e70a 45be
00000050: 009f c13d 754d 31be 164a 4a3e f0fc 993e
00000060: 68dd 1c3e ab85 86be f257 32be 6bce 873d
00000070: 5644 8a3e 039e 9cbe 1e49 77bd df6b 843e
00000080: 60c2 71bd cea4 6d3e 236d 5f3d 7e00 75be
00000090: 37e7 813e 8ba1 613e 98a7 943e 64e6 a73d
000000a0: 9dd7 883b f310 913e c2e9 8e3d c413 7bbe
000000b0: 6282 6d3e eca5 0abe 5c13 87bd 4a8f 063d
000000c0: 2ffd 723e 3c25 9f3e b48a 193e 8dae 343e
000000d0: 97d9 e1be 2901 d53d bee5 c13e fecd 71bc
000000e0: 5b84 e23d 095e c7bd 0270 4c3e 852a 1b3f
000000f0: 4d3f cd3d 552f 733e 7a45 a23d 63ab 82bd
00000100: c515 2fbe 9d80 793e 690b 49bd d872 aabe
00000110: c5b8 d13d 6a4e 503e 078c 823e a552 93be
00000120: 33f1 2e3c c7e1 9cbe e724 edbd c865 e9be
00000130: faf4 4f3e 1a34 adbe fd5a 863d 31a4 68be
00000140: c785 a2be 7266 a8be 2eae f33a 1d44 883d
00000150: ba37 613e 9854 9bbe 0a57 8dbe 63e6 a4be
00000160: ce4e 69bc 506d 223e f3fa 323e 7be2 4ebd
00000170: c583 5e3e b538 93be 137b 7b3e 1633 39bd
00000180: bfe9 653e 1a85 bebd 7627 f63d 91ba 0bbd
00000190: 1747 8f3e 999a 38be eb03 8c3e 2334 683d
000001a0: c880 b1be 5a75 8ebe ad59 583e eb2e 54be
000001b0: bda5 b03e ce07 843e e0cb 7f3e 4b46 c6be
000001c0: 44a0 b0be 3183 9a3e 45c6 b63d 9379 cfbd
000001d0: 0b7a 95bd cb63 363e 4017 223e 66eb 3fbd
000001e0: 8c0f bf3e 2d2a c4bd 567c 5e3e c76c b8be
000001f0: 3791 973d 11cb 753e b76e 95bd 058e b23e
-0.073494 0.35322094 -0.25848633 0.158297 -0.09273929 -0.046883218 0.38363987 -0.28662327
0.15740408 0.2748606 0.2602793 -0.104470514 -0.022560848 0.22677423 -0.31617576 -0.06536992
0.062201273 -0.044455368 -0.32601446 -0.1924244 0.09454155 -0.17314704 0.19754824 0.30075788
0.15318835 -0.26273856 -0.17416361 0.06631168 0.2700526 -0.30589303 -0.060372464 0.2586355
-0.05902326 0.23207399 0.05454744 -0.23925969 0.25371715 0.2203428 0.29034114 0.081982404
0.0041760937 0.28333244 0.069781795 -0.24519259 0.23194268 -0.13539857 -0.065954894 0.032851495
0.23729394 0.31083095 0.14994317 0.17644711 -0.4411132 0.10400612 0.37870592 -0.014758585
0.11060401 -0.09734733 0.19964603 0.60611755 0.10021839 0.23748524 0.07923408 -0.06380346
-0.17098148 0.24365468 -0.049083147 -0.33290744 0.1024032 0.20342413 0.25497457 -0.2877399
0.010677624 -0.30641004 -0.11579304 -0.45585465 0.20308295 -0.33828813 0.065603234 -0.22718884
-0.3174269 -0.3289066 0.0018591338 0.066536166 0.21993914 -0.30337977 -0.27605468 -0.3220702
-0.01423998 0.15862012 0.17478542 -0.050508957 0.21729954 -0.28754202 0.24558668 -0.045214735
0.22452448 -0.09302731 0.12019245 -0.03411347 0.27983925 -0.18027724 0.2734674 0.056690346
-0.34668565 -0.27823907 0.21127959 -0.20721023 0.34501448 0.25787205 0.24980116 -0.38725504
-0.34497273 0.30178216 0.08924536 -0.1013061 -0.072986685 0.17811505 0.15829182 -0.046855353
0.3731655 -0.09578357 0.21727118 -0.3602049 0.074007444 0.24003245 -0.07296508 0.34873977

bias f4 [16]
00000000: ed48 c63e c814 c93e f271 d23e 88ff 58bd
00000010: bb3e 1d3e 639d b0be 5189 21be 8c31 5fbe
00000020: c83a 233e de43 13bd 676e 36bd d2b8 053e
00000030: 6a80 583e 9933 6ebd 93db 25be 2760 bc3e
0.38727513 0.39273667 0.41102558 -0.05297807 0.15355961 -0.34495077 -0.15775038 -0.21796244
0.15940392 -0.035953395 -0.04453888 0.13058785 0.21142736 -0.058154676 -0.16197042 0.36792108

weight f4 [16, 16]
00000000: 5312 8d3e bb28 b03e 4b54 193e 7aee 57be
00000010: 2791 9f3e 265c 02bd 5bb7 543d 9839 c4be
00000020: 61e8 e5bd a98b 55be f8b8 da3c fde6 043d
00000030: ed52 623e ca6c dbbd e10e f3bd 8119 7a3d
00000040: e552 0d3e 6f9b 1b3e f77d ab3d ad8c 48bd
00000050: e0f2 1d3e 6156 15be 16fe a33d c44b eb3d
00000060: 06ef 76be a614 fdbd 3589 f5bd 36b4 5c3e
00000070: 98cc 69bd b06f 443e 30ea cc3d c69d 64bd
00000080: c762 7e3d 0a37 033e 6747 e13d f44d 2cbe
00000090: 172c 4f3e 1b40 973d a8ae 17bd c0f0 63be
000000a0: db7f 54bd d782 0c3e 9c1f 163e b8ee 613e
000000b0: 9767 16be 8b97 33be f0b1 493c 556b 3d3e
000000c0: c94d 7d3d 5c1e 8ebe 7d4d b23d 64b5 3b3e
000000d0: a5f6 6cbd 80ea 6ebe 729a 88bc 265d 503e
000000e0: 20df 9f3d 61c2 803d de25 7f3e 3820 43be
000000f0: b579 0b3d dbb8 073e 401a ec3d 53f0 193e
00000100: a726 133e 43e8 c13d 1ed6 0e3e e8d7 5abe
00000110: 6689 443e b32c 8bbd 7e4d a73d 06f3 dabd
00000120: ebb4 823e 52c8 ddbd 0076 afbe 963a 6a3e
00000130: 16f3 1bbe a415 bcbd 0d73 2f3d 2f62 c6bc
00000140: d02b a63d f2b4 bbbd 050f 1e3c 2520 a1bc
00000150: 5099 003e 113e 84be c6d3 03be dd1d e63e
00000160: 799a c3bb 5b41 9e3e 4f0c 723e 3833 763e
00000170: 4b78 fbbd a4b8 653e 09ba 2dbe eee6 313e
00000180: 72d2 50be 6e57 d5bd 3ef3 3a3e f283 733d
00000190: f117 563d cfc6 9c3e 29e0 96bd aed6 9a3e
000001a0: af33 473e fe96 23be ab33 de3d bb76 4abe
000001b0: 8147 4f3d cc9e 44bd b80c 3abe cb13 1dbe
000001c0: 1ffa 3abe b708 933e 5b53 c43d 15e2 523e
000001d0: 940c 733e 81ff 273e 0cda f53d 751e 55be
000001e0: e092 40be be02 04bc 357f 18be 55c9 81bd
000001f0: f1b7 3dbe 3aa2 093e bfda 68be e222 493e
00000200: d124 77bd d749 16bd 882f e3bd 3c16 e53c
00000210: 63a4 4dbe 106c 73be fcbc 3e3e 9625 593e
00000220: f301 e63d 8705 683d ca35 3dbe 3155 913d
00000230: 44ab 2f3d 9b95 22be 8c64 47be eb4b a6bd
00000240: f7ba 233e 9ce1 61be 6d74 2c3d 1d74 d4bd
00000250: 2584 95bd af49 093e 2479 83bd 3128 0e3e
00000260: 7aba 05be 5438 1dbe 081e cf3d 8910 093e
00000270: af26 f2bd 07ef 343c fa5f 283e 7bfb 38be
00000280: e037 15be 1bcf 0d3e 11b4 dd3d 57f6 213e
00000290: cfb8 91be a50b 413e 9db8 65be d7b1 d83b
000002a0: 85c2 283e dd8d 233e 4fed b9bd 9da7 14be
000002b0: 61c2 5dbd b500 b33d 0f59 6ebe 3453 9dbd
000002c0: 1433 113e ca3d f7bc f127 3bbe 8c24 0e3e
000002d0: 7645 c9bd 9128 2a3e 2b1b b3bc fe01 c8bd
000002e0: 650d 573e 3436 a03d 2b05 a2be 4b74 29be
000002f0: 9d8d a73d 5674 24be 0119 a63d 5c64 aabd
00000300: b632 7d3c 6ab4 0c3e 0133 be3d 9f87 31be
00000310: f421 de3d 536b 293e ab97 77be 676c d7bd
00000320: 919d 383d 5abd 47be e1be eb3c 2c23 86be
00000330: 3c0d cdbd 441a 86be 44a8 2c3e 34cf 1abe
00000340: def5 b03e bb62 7e3e 2d87 84bd 2734 9abd
00000350: 1ad8 f9bc c592 c53d 3897 483e 44ef b7bd
00000360: 44aa 7abd a80a 1ebe 9715 01be d479 e6bd
00000370: 64a9 d7bd 7051 a2bd 108c 963e 70f5 7f3e
00000380: 44c8 e7bd 1973 ae3d 05b7 cf3d f773 09be
00000390: a36d 25be 9265 6ebe e93a 8f3e bb1b 5abe
000003a0: 1156 0c3a 4a17 67be 659b 3bbe c375 693e
000003b0: 5820 40be 9cc2 fa3c 633d ecbc b65a aa3c
000003c0: 33cf 89bd cd8a 7fbe fc77 2c3d 826b 773d
000003d0: 91c2 9f3d bebf 09bc 13a0 73be d7b2 013d
000003e0: fcce 573c fcc9 393e 798b 273e ed16 bd3c
000003f0: f5bd 34be a345 e93d f460 16bd 7ad7 cebd
0.27553043 0.34406075 0.14973561 -0.21087065 0.3116543 -0.03182616 0.051932674 -0.3832519
-0.112259634 -0.20854057 0.026699528 0.03244685 0.22101946 -0.10714109 -0.11868072 0.06105948
0.13801153 0.15196012 0.08373635 -0.048962284 0.1542468 -0.14583732 0.080074474 0.114890605
-0.24114618 -0.12357454 -0.11989061 0.2155312 -0.05707988 0.1918323 0.10005605 -0.055814527
0.06210592 0.12813964 0.10999947 -0.16826612 0.20231663 0.07385274 -0.0370318 -0.22259808
-0.051879745 0.13721786 0.14660496 0.2206372 -0.14687954 -0.17538278 0.01231049 0.18497975
0.06184176 -0.27757537 0.08706186 0.18330914 -0.057852406 -0.23331642 -0.016675208 0.20348033
0.078062296 0.06287075 0.24916789 -0.19055259 0.034051616 0.1325411 0.11528444 0.15033083
0.14370213 0.094681285 0.13948867 -0.21371424 0.19193038 -0.06795635 0.08169077 -0.10690884
0.25528654 -0.10829224 -0.34269714 0.22873911 -0.15229449 -0.09183815 0.04283433 -0.02421674
0.08113825 -0.09165372 0.009647136 -0.019668648 0.12558484 -0.25828603 -0.12873754 0.4494466
-0.0059693423 0.30909237 0.23637508 0.24042976 -0.122788034 0.22433716 -0.16965498 0.17373249
-0.20392779 -0.104170665 0.18256852 0.059452005 0.052268926 0.3062043 -0.07366974 0.30241913
0.1945331 -0.15975568 0.10849699 -0.19771855 0.0506053 -0.048003003 -0.18168914 -0.15339582
-0.18259476 0.28717586 0.09586211 0.20594056 0.23735267 0.16406061 0.1200448 -0.208124
-0.18806028 -0.008057294 -0.14892276 -0.06337229 -0.185272 0.13440791 -0.22739695 0.19642213
-0.060337845 -0.036691513 -0.1109305 0.027964704 -0.2008224 -0.23771691 0.1862678 0.21205744
0.112308405 0.056645896 -0.1847755 0.07096327 0.04288794 -0.15877382 -0.1947195 -0.08119949
0.1598929 -0.2205872 0.04210322 -0.10373709 -0.07300595 0.13407014 -0.0641959 0.1388252
-0.13059416 -0.15353519 0.1011315 0.13385214 -0.118237846 0.011043317 0.16442862 -0.18064682
-0.14572096 0.13848536 0.108253606 0.15816627 -0.2846131 0.18852098 -0.22433706 0.006612997
0.16480453 0.15972085 -0.09078466 -0.14517064 -0.054140452 0.08740369 -0.2327616 -0.07681885
0.14179641 -0.03018083 -0.18276955 0.13881129 -0.09827702 0.16617037 -0.02186354 -0.09766005
0.21001203 0.078228384 -0.31644568 -0.16548268 0.081813075 -0.16060004 0.08110238 -0.08319923
0.015453985 0.13740698 0.09287072 -0.17336892 0.1084632 0.16544847 -0.2417895 -0.10518723
0.045072142 -0.19505826 0.028777542 -0.2619871 -0.1001229 -0.26191914 0.16861063 -0.15118104
0.34562582 0.2484235 -0.06471095 -0.075294785 -0.030498553 0.09647135 0.19588935 -0.08981183
-0.061197534 -0.15433753 -0.12605892 -0.112537056 -0.105303556 -0.07925689 0.29403734 0.2499597
-0.113174945 0.08518047 0.1014233 -0.13423143 -0.16155104 -0.23280933 0.27974632 -0.21299641
0.0005353401 -0.22567478 -0.18320997 0.22798829 -0.18762338 0.030610375 -0.028837865 0.020795207
-0.06728973 -0.24955292 0.042106614 0.06040526 0.078007825 -0.008407531 -0.23791532 0.031664696
0.0131719075 0.18143457 0.16361798 0.02308222 -0.17650588 0.11390235 -0.036713555 -0.10099693

bias f4 [16]
00000000: f9e1 013e 54fa 90be 5f22 8a3e ab6e bd3d
00000010: 11d2 fb3d b13e 0cbd b8e9 b8bd 14ec 4bbd
00000020: aa31 183d 04f9 1abe bbed 5abe e520 193d
00000030: 870f d4bd 45e5 933d 8391 953d cd9b 02be
0.12683858 -0.28315985 0.26979348 0.09249624 0.12295926 -0.034239475 -0.09028953 -0.04978569
0.03715674 -0.15134054 -0.2137975 0.037384886 -0.10354524 0.07221464 0.07303145 -0.12754746

weight f4 [2, 16]
00000000: 7841 823e b53c 69be 2e8e 793e e15e 88bd
00000010: 9512 e13d 3220 ffbd 245b 663e eb4f c83d
00000020: 7b3d 4abe eef7 25be a582 f93d 6090 b33c
00000030: c1f4 aebd 79e2 c03e 27cf 2e3e 04e4 46be
00000040: 6a89 a83e 855a 87bd 6284 4cbc 850e 38be
00000050: 981e f93d 0e32 82be 2ee7 9e3d f9ea 503e
00000060: 18fb 6dbe 86bf 103e 8c3d 26be 1827 8c3e
00000070: e96d c23d a6bf 513e 2a24 9f3e 8382 523e
0.25440574 -0.22777064 0.24370643 -0.06658722 0.10989872 -0.12457313 0.22495705 0.09780868
-0.19750015 -0.16207859 0.121831216 0.02191943 -0.08542777 0.37672785 0.1707121 -0.19422919
0.3291734 -0.06609062 -0.012482734 -0.17974289 0.121640384 -0.25428814 0.07758938 0.20402135
-0.23240316 0.1413556 -0.16234416 0.27373576 0.0949362 0.20483264 0.31082278 0.20557599

bias f4 [2]
00000000: 33ae 803b c5fb 413e
0.003927016 0.18943699
