Pima_Indians_Diabetes_Database/checkpoint/best-0.545.pth (torch, 14566 bytes, 6 tensors)

weight f4 [64, 8]
000000 db bd 9e 3e cf ac 90 3e 41 6f f0 bc ea d9 88 3e
       0.31004223 0.28256842 -0.029349925 0.26728755
000010 7f f0 8b be 0a a7 a1 3e d3 20 77 3e 2a 90 13 3e
       -0.2733192 0.31572753 0.24133615 0.14410463
000020 25 3e 9a bd 58 f3 47 3e fe 42 91 bb 50 ae 13 be
       -0.075313844 0.19526422 -0.004433035 -0.14421964
000030 c4 77 94 3c 93 6a cb bd a2 66 77 be 30 a8 32 3e
       0.018123515 -0.09932437 -0.24160245 0.17446971
000040 8c db 69 be df 1c ca be 4b 89 1e 3a f6 3f 7c be
       -0.22837657 -0.39475152 0.000604768 -0.24633774
000050 7b e4 ae 3d a2 d1 c8 be 06 fd 03 3d 2c 85 71 be
       0.08539673 -0.39222437 0.032223724 -0.23585957
000060 12 9c a6 3d fc 48 4c 3e 19 ad 94 be 6e fa 22 3c
       0.08135237 0.19949716 -0.29038313 0.009947402
000070 05 68 9f bd f1 6c 90 3e 38 1e 4d 3d d0 ca ec bc
       -0.07783512 0.28208116 0.050077647 -0.028905302
000080 55 fe 0f 3d 0d dd 01 3e 6e 3c 88 be 6c ee b1 bd
       0.03515466 0.1268198 -0.26608604 -0.086880535
000090 6d ed 6d be 9c 99 a3 3b a4 27 2a be 5a 9e 89 3e
       -0.23235102 0.004992677 -0.16616684 0.26878625
0000a0 b0 1f 97 be 42 41 89 be 33 1a f4 bd e5 89 98 3d
       -0.29516363 -0.268076 -0.119190596 0.07448176
0000b0 4a 76 01 3e 98 f7 ca 3d 28 2f a8 be af a6 d0 3e
       0.1264278 0.09910506 -0.32848477 0.4075217
0000c0 94 44 87 3e f6 70 52 bd 58 5b 45 3e 54 62 a3 bd
       0.26419508 -0.05137726 0.19273126 -0.07977739
0000d0 df b2 59 3e ed ef 08 3e a1 c7 31 3e 7d e2 5a be
       0.2125964 0.13372774 0.17361309 -0.21375461
0000e0 d6 d5 9b 3d e4 e4 66 3e fc ed 23 3e 59 02 63 be
       0.07609145 0.22548252 0.16008753 -0.22168864
0000f0 3e 88 50 3e a8 f6 e3 bd 90 10 bb 3e ce 64 3c 3e
       0.20364472 -0.1113103 0.36536074 0.18397829
000100 8e 9b 8c 3e 4c 50 fb 3d bd 53 9f 3e aa 28 a9 3e
       0.2746243 0.12271175 0.31118575 0.33038837
000110 38 d5 f5 bd da c4 6e 3d d3 a0 bc 3d e3 68 7a 3c
       -0.12003559 0.0582932 0.09210362 0.015283796
000120 cc f7 a1 3d eb ad 8c 3d 3a 34 0a bd 40 b6 20 3e
       0.07908592 0.0686911 -0.033741213 0.15694523
000130 cd 1a 03 3e 0c 1b 90 3d 79 d1 7f 3e 28 be ee bd
       0.12803192 0.07036409 0.24982251 -0.11657363
000140 cc ad bd 3d 09 38 6d bd 66 2b 86 3d 4e 2d 7e be
       0.09261665 -0.057914767 0.06551246 -0.2482197
000150 f6 fb 53 bd 6c 99 db 3d 36 da 28 3d 95 5d f9 3c
       -0.05175396 0.10722622 0.041223727 0.030440131
000160 3c 4f b7 3d a9 6a cb bd a6 cf 6f 3c 74 56 86 3e
       0.0895066 -0.09932453 0.01463691 0.26237833
000170 73 23 59 be d6 23 30 3e f4 ce 97 be c3 6f 86 3e
       -0.21204929 0.1720117 -0.2965008 0.26257142
000180 7c 73 06 3e fd 33 40 be 87 3b 04 be 1b a0 23 be
       0.13129991 -0.18769832 -0.12913333 -0.15979044
000190 bb 5c 81 3d a4 f5 63 3e c2 08 ba 3d 81 aa 2c 3d
       0.06316515 0.22261673 0.09083702 0.042154793
0001a0 61 bb f5 be 74 10 58 3e 0e 6c 39 3c 29 e8 6a bc
       -0.4799452 0.21100026 0.011317266 -0.014337578
0001b0 8a 88 3f 3e 80 ef 91 3c f2 9f 9c be ba 5a 8d 3e
       0.1870443 0.017814398 -0.3059078 0.2760828
0001c0 a5 e8 ff bc 9f 1f 06 be e3 25 a6 be ac a5 b7 3e
       -0.031238863 -0.13098 -0.3245078 0.35868585
0001d0 43 25 49 3e d5 ff 36 3c 6a 4b 1b 3e 9d 4d 53 3e
       0.1964312 0.011169394 0.15165487 0.20635076
0001e0 72 9a 12 3d 00 8a a0 be 1d 85 56 be af 77 13 bf
       0.03579182 -0.31355286 -0.20949216 -0.576045
0001f0 30 28 88 bd 6f 05 ce bd 87 24 76 be 7a e4 5b 3d
       -0.0664829 -0.1005963 -0.24037372 0.05368469
000200 9e 60 14 be b2 6b 07 3e 37 af cd 3e 3c 6c c4 3e
       -0.14489982 0.13224676 0.4017274 0.38363826
000210 d7 d5 ef 3d 3c e7 32 3e 1c 27 9b 3e de fa b2 bd
       0.117107086 0.17471021 0.30303276 -0.08739255
000220 a4 fb f0 bd 89 06 b7 3e 11 97 7f be d1 d5 5c 3d
       -0.11766747 0.35747173 -0.24959971 0.05391485
000230 09 90 3e be 8c b6 97 be 6b 30 15 3d bc cb 85 be
       -0.18609633 -0.2963146 0.036423128 -0.26132
000240 ff 45 73 be 96 73 c4 3d 86 88 f3 3d c7 57 ec 3e
       -0.2375717 0.09592359 0.11891274 0.4616072
000250 5d c5 e2 bd 97 a1 8f bd 5c f6 8b 3d 8f e9 8b 3e
       -0.110728 -0.07013243 0.06834099 0.2732663
000260 73 28 ba bc 37 5e d7 bd 7e aa e1 bd b7 ae e5 3e
       -0.022724366 -0.10516017 -0.11018847 0.4485986
000270 6c 24 a0 3d aa 2b bf bd ad 04 ab 3d 42 67 00 3e
       0.07819447 -0.093345 0.08350501 0.1253939
000280 1c 59 70 3d c6 47 d8 3c 63 db 69 3b bc 0b b5 3e
       0.05867873 0.026401412 0.0035683743 0.35360515
000290 ce 85 27 3c a2 9b 37 3e 20 33 f7 3c 4c 63 57 38
       0.010224773 0.17930463 0.030175745 5.1352472e-05
0002a0 fc 94 87 be 72 74 81 3e 03 e3 74 3e 20 3f 17 be
       -0.26480854 0.25284153 0.23914723 -0.14770174
0002b0 72 63 df 3c 23 85 27 be e4 87 60 3e 29 be 03 3e
       0.027269099 -0.16359381 0.21926838 0.12865509
0002c0 97 b7 97 be 31 dd 96 be b2 04 4f be d3 28 a9 3e
       -0.29632255 -0.2946563 -0.20216635 0.3303896
0002d0 f7 e4 5d 3e 15 4c f0 be b3 89 33 bc c6 9e 1f 3c
       0.21669374 -0.46933046 -0.010958123 0.009742444
0002e0 cb 31 80 3d 80 55 61 be cc e6 a4 be 05 ad 56 3d
       0.06259497 -0.22005272 -0.32207334 0.052411098
0002f0 12 54 9f 3e ac 63 ce be ee f2 be 3d 82 7d 30 3d
       0.31118828 -0.4031042 0.09323679 0.043088444
000300 f8 e3 06 3e c7 94 e9 bc 15 13 14 be b5 47 8e be
       0.131729 -0.028513325 -0.14460404 -0.27789083
000310 81 e9 7a 3e 1b da 13 3e ae 0a 7d be 8a 28 16 3e
       0.24503137 0.1443867 -0.24711105 0.14663902
000320 bd eb 9a be c8 37 24 bd 0c 9a 8a be 80 24 26 bd
       -0.3025798 -0.04009226 -0.27070653 -0.040562153
000330 69 39 34 be 8d 98 b1 be b3 a3 0e 3e 3e 42 b4 3a
       -0.17600025 -0.346867 0.13929634 0.0013752652
000340 7f 6d 88 bd 91 cd 3d bc c6 8c 81 3e fd 67 1d 3f
       -0.0666151 -0.011584655 0.25302714 0.614868
000350 32 2d 05 be 08 e7 6d bd 41 b4 13 3e 14 54 a3 3c
       -0.13005522 -0.058081657 0.1442423 0.019937553
000360 76 e8 18 be c9 a6 6b 3e 66 91 9c bd 3c 8e 68 be
       -0.14932427 0.23012842 -0.0764492 -0.22710508
000370 bc c7 a1 3e 8f 58 d6 3e ab b2 70 bd 8e 53 8a 3e
       0.31597698 0.4186444 -0.05876414 0.27016872
000380 99 67 4e 3e c3 ff 68 3e 72 08 36 3d b1 1a c8 3e
       0.20156707 0.22753815 0.044441648 0.39082864
000390 3e 72 2b 3e 98 32 3d be a4 13 e3 bc 66 12 84 bd
       0.16742799 -0.18476331 -0.027719326 -0.06448822
0003a0 e5 83 69 be 64 28 be 3d 02 a6 c1 bc 5f ea a5 bd
       -0.2280422 0.09285048 -0.023638729 -0.08101343
0003b0 d3 90 c0 be 1f 72 d4 3c ba 3c a4 3e ca 63 bc bd
       -0.37610492 0.025933323 0.3207758 -0.09198721
0003c0 a8 f6 84 bd ce 4d a4 3e 32 ba 72 be 19 92 e4 bd
       -0.064923584 0.3209061 -0.2370384 -0.111606784
0003d0 fd eb 81 3e ca 38 6b 3e a9 1e 05 3e a4 8e 96 3e
       0.25375357 0.22970882 0.12999977 0.294057
0003e0 28 f1 d7 bd d0 c4 8b 3e 0d e0 8f be f2 93 b0 3e
       -0.10544044 0.27298594 -0.28100625 0.34487873
0003f0 c1 eb 9d bd db 0c 18 3e 1b a2 90 be ec 4c 39 be
       -0.07710982 0.14848654 -0.28248677 -0.1809575

bias f4 [64]
000000 d0 07 6a 3e 39 39 a4 be f2 ed fa 3d 7a 92 8b 3e
       0.22854543 -0.32074907 0.12252416 0.2726019
000010 8f 8c 94 bd 5b 87 18 3e f3 91 a5 3b b4 d2 29 be
       -0.07253372 0.14895384 0.005052799 -0.16584283
000020 5c ad 91 be bc 16 c1 be 8d 11 b0 3d a4 65 c6 bd
       -0.28452575 -0.37712657 0.085970975 -0.09687355
000030 9e 48 cf be 55 de 89 be 0f 36 ba 3e 36 34 66 bd
       -0.4048509 -0.26927438 0.36369368 -0.056202136
000040 37 20 b5 bc 35 8c 7d 3e 35 54 ab be 7a cb 5d be
       -0.022110088 0.24760516 -0.33462682 -0.21659651
000050 a3 44 0b be be 3a 04 3c 57 12 89 bd c0 7f 94 be
       -0.13600402 0.008070646 -0.06692951 -0.29003716
000060 2a 0f ac 3d e0 b1 88 be 90 67 a4 be 00 b8 9b 3d
       0.0840133 -0.26698208 -0.32110262 0.076034546
000070 d6 46 d3 3e 78 16 c8 3e 8f e2 99 3e 77 33 9f 3e
       0.4126498 0.39079642 0.30055663 0.31093952
000080 02 9a b9 be 59 1c 96 be d3 0e 50 3d 92 45 a3 be
       -0.3625031 -0.29318503 0.050795387 -0.31889015
000090 66 45 cf 3e 9e 03 61 3e 49 cc 53 be 67 f1 9d 3e
       0.40482634 0.21974036 -0.20683397 0.30848238
0000a0 e7 26 1b be cc 60 7c 3d 39 f2 98 3d 7d 22 ba be
       -0.15151559 0.06161575 0.07468075 -0.36354437
0000b0 cd 5f 69 be 69 f3 bd 3d 9c 06 b5 3c f4 51 9f 3e
       -0.22790451 0.092749424 0.022097878 0.31117213
0000c0 85 5f 6e bd e7 76 e0 3e 9a 60 37 3e 3d d9 54 3e
       -0.058196563 0.43840715 0.17907944 0.20785995
0000d0 61 81 1c be e1 2b ab be c3 2f 72 be aa 43 b8 be
       -0.15283729 -0.33431914 -0.23651032 -0.35989124
0000e0 31 6d 9f be 4d 6e 9a 3e b6 42 3e be 81 dd 8c bd
       -0.31137994 0.30162278 -0.18580136 -0.06878186
0000f0 66 ca ca bc 5c 6e 33 be 0e 37 49 bd 7d 74 4a 3e
       -0.024754714 -0.17522568 -0.04912477 0.19770999

weight f4 [32, 64]
000000 3b cd ce 3c ec 05 3f bd de 45 b6 3d dd e2 52 3b
       0.025244346 -0.046636507 0.08900045 0.0032178678
000010 a5 bc f7 bd 95 73 1d 3d 06 d3 b3 3d b0 e1 72 bd
       -0.12096528 0.038440306 0.08780484 -0.059297264
000020 a2 8c e2 3d 53 9e 38 bd b8 c8 b1 3c 14 c3 e9 bd
       0.1106198 -0.045072865 0.021702155 -0.11414161
000030 b6 c6 05 bc c2 7a f8 bd 93 25 a5 3d 13 eb ac bd
       -0.008165052 -0.12132789 0.08063807 -0.08443274
000040 7c 91 0b bd 5b 18 2c 3d 43 2c e8 bd 63 18 43 3c
       -0.03407429 0.042015415 -0.11336567 0.01190767
000050 d3 55 79 bc c2 1d cf bd 90 28 b1 bd b0 57 53 3d
       -0.015218216 -0.10113098 -0.08650315 0.051597297
000060 b4 20 ef 3d 6d ff 08 3d f2 a9 41 bd 59 b7 58 3d
       0.116761595 0.033446718 -0.047281213 0.05290923
000070 c3 d1 ad bd 8d 82 f9 bd d2 f0 5a bd 24 c0 d6 bd
       -0.084872745 -0.12183104 -0.05345232 -0.10485867
000080 b9 77 79 bb 5b 86 08 3c c2 53 1c 3d 5c e5 ba bb
       -0.0038065745 0.008332814 0.038165815 -0.0057036113
000090 71 6a 3e 3b fd fe a2 bb 08 04 0b bd 7c 31 48 bd
       0.0029055143 -0.0049742446 -0.03393939 -0.048875317
0000a0 06 2b fa bd f3 a9 dc bd 2c b9 90 3d 33 32 e3 3d
       -0.12215237 -0.10774603 0.07066569 0.11093559
0000b0 35 fe 4f 3d 9a 52 4b bd 43 b2 bc 3d 86 9c 3d bd
       0.05077954 -0.049639322 0.09213688 -0.04629185
0000c0 43 8b 5b bd 92 43 ce bb cb ab cc bd 4c bf 85 bd
       -0.053599607 -0.006294676 -0.099937044 -0.065306276
0000d0 e0 97 72 bd 80 8a 65 bc 2e 49 6c bd ef 8a e6 bd
       -0.05922687 -0.014010072 -0.057686977 -0.11256968
0000e0 62 71 b8 bd d0 d3 a2 bd 95 7b 47 bd 5f 03 a9 3d
       -0.09006001 -0.07950556 -0.04870184 0.08252596
0000f0 86 79 22 bd f4 17 f1 3d 32 b7 aa 3d 92 8f 12 3d
       -0.039666675 0.11772147 0.08335723 0.03578145
000100 20 35 8b bd b5 4c f6 bc eb 68 80 be b1 4e fe bc
       -0.06797242 -0.030065874 -0.25080046 -0.031043382
000110 74 b4 10 3e b6 06 9f bc 1c 69 94 bd eb f5 db 3d
       0.14131337 -0.01941238 -0.072466105 0.107402645
000120 5f d7 b3 bd 42 a1 eb bd e6 64 2d 3d fd 80 01 bd
       -0.08781313 -0.11505367 0.042332552 -0.031617153
000130 1d cf 0f bd 6e 35 6c bd fc 48 dc 3d 68 c1 06 be
       -0.035109628 -0.057668142 0.10756108 -0.13159716
000140 18 72 c4 3d ff 3e c9 3d 09 ea 28 be 20 0a a2 bc
       0.09592074 0.09826469 -0.16495527 -0.019780219
000150 29 6c f9 bc 3e 14 3e 3d 41 a4 51 be aa 32 f9 bd
       -0.030447083 0.046406023 -0.20472814 -0.121678665
000160 80 ca c6 bd 1c e4 99 bd c2 72 40 be 11 a8 bf bd
       -0.097065926 -0.075142115 -0.18793777 -0.09358228
000170 54 bc 5b 3d 47 fb e7 3d ee ea 4e bb 9e eb 19 3e
       0.0536464 0.11327224 -0.0031573134 0.15031287
000180 36 69 6d be cb 01 38 be 00 ca 33 bc 42 33 17 3c
       -0.23184666 -0.17969434 -0.0109734535 0.009228529
000190 ba d0 0b 3e ba ee 39 3e dd 26 13 be 16 54 f6 3b
       0.13653842 0.18157473 -0.14370294 0.007517348
0001a0 db 37 6a bd ba 3a 05 3d 0b d9 15 bd 9e cc 79 bd
       -0.057182174 0.03252671 -0.03658394 -0.060986154
0001b0 75 97 13 bd 76 75 e4 bc 01 96 09 be 46 ce f3 3c
       -0.036033113 -0.027888041 -0.13436128 0.029761445
0001c0 bd e4 14 bd c2 61 25 3e 84 ea 1d be 1a 1f c5 3d
       -0.036350954 0.16150573 -0.15421492 0.09625073
0001d0 54 16 12 be 11 88 b3 bb 18 46 9f bb 09 30 08 3d
       -0.1426633 -0.005478867 -0.0048606507 0.033248935
0001e0 dc 70 59 3d 8c 6c 60 3d 4c 98 11 3e 53 ab af bd
       0.053086147 0.05479102 0.14218253 -0.085775994
0001f0 a6 9c 31 be 6c f1 21 3d 5e e9 1d 3d 33 13 e6 3d
       -0.17344913 0.03953688 0.038552634 0.11234131
000200 39 33 9d 3b db 25 64 bd 74 6d 02 be 9e 20 48 3e
       0.004797366 -0.055700164 -0.12737066 0.19543692
000210 77 53 37 3d 1f fd e7 3c 32 49 0b 3c ca e3 7d 3a
       0.044757333 0.02831894 0.008501338 0.00096851273
000220 6e 9e 9b bd 79 c9 99 3b 46 e7 8c bd 76 65 9d bd
       -0.075985774 0.004693207 -0.068800494 -0.07685368
000230 11 5c 58 3c 77 57 1d 3d ce 05 b5 3d c0 80 20 be
       0.013205544 0.03841349 0.08838998 -0.15674114
000240 61 81 32 bd 49 97 aa bd e5 90 ff bd 45 5b 6d bd
       -0.043580417 -0.083296366 -0.12478808 -0.05794837
000250 ef b5 ef bd c6 3d 77 3d ac 0b 16 be ff 47 f5 3d
       -0.11704623 0.060361646 -0.1465289 0.11976623
000260 2b 36 ee bc f4 66 e1 bd 50 c3 0e be 6d d7 44 bd
       -0.029078564 -0.11005965 -0.13941693 -0.04805701
000270 82 d0 ab 3d 8b 00 aa 3d 0c 4d 4e 3d b9 37 20 3d
       0.08389379 0.08300885 0.050366446 0.03911564
000280 78 9b 21 bd 48 14 05 be 94 45 a5 3c c6 93 f5 bd
       -0.039454907 -0.12996018 0.020174779 -0.11991076
000290 b7 8a d8 3d 07 cb ad bc ca 47 04 3d ef c4 24 bd
       0.10573333 -0.021214975 0.032295026 -0.040226873
0002a0 30 0b f5 3c 2c a7 35 3d 38 7b ec 3d 63 b0 66 3d
       0.029912561 0.04434888 0.115469396 0.05632056
0002b0 3b d2 2c be f0 df a5 bd 36 18 7a 3c 86 15 26 bd
       -0.16877072 -0.08099353 0.015264561 -0.04054787
0002c0 47 e4 40 3e 16 0b b5 3d d3 44 21 bd 67 8e 15 3e
       0.18837081 0.08840005 -0.039372277 0.14605103
0002d0 9a 6d 3d 3b 18 9f 0e be 2b c0 03 be fc e2 39 bd
       0.002890444 -0.13927877 -0.12866275 -0.045382485
0002e0 b4 78 8a 3c 1d bd c4 bd ef 67 54 bd eb ce b0 bc
       0.016903259 -0.09606383 -0.05185693 -0.021583041
0002f0 4f 76 24 be 81 02 cf 3d 31 49 15 bc 40 8d 90 3d
       -0.16060756 0.101078995 -0.0091116885 0.07058191
000300 cd 53 ae 3d 16 d6 32 3c cc 6a a6 bd 7a fd e7 3d
       0.085120775 0.0109153 -0.08125839 0.11327644
000310 d5 73 03 3d ee c1 28 3d d4 de d3 bd 41 11 79 bd
       0.032092888 0.04120057 -0.103452355 -0.06080747
000320 04 9f 9e 3d 44 e9 56 bd 6c 72 0d bd 72 09 8e 3d
       0.077451736 -0.052468553 -0.03453295 0.06935395
000330 d6 9d bc bc f4 e8 d0 3d 72 35 7e bd b8 9f a6 bd
       -0.02302448 0.10200682 -0.06206269 -0.08135933
000340 41 0e 45 3d b0 13 30 3b 7e c4 88 bd 23 ec 53 be
       0.048109297 0.0026867203 -0.06678103 -0.20695548
000350 70 0a 75 bd 99 27 8e bc 10 ac 35 3d 95 e3 fa bd
       -0.059824407 -0.017352866 0.044353545 -0.12250439
000360 2a 2b 9b bd 0a 0d 0f bd e2 bf 88 3c 6c 2d dd 3d
       -0.07576592 -0.034924544 0.01669306 0.10799679
000370 cb 17 72 bc 30 1d c0 bd 67 6f 9d 3d 06 af 74 3d
       -0.0147761805 -0.09380567 0.07687264 0.059737228
000380 f7 3d 32 3c 39 39 82 3c 0c 47 e6 bd d5 27 e6 3c
       0.010879031 0.015896427 -0.1124402 0.028095165
000390 8a ea 41 bd 14 40 34 bd 0e ec 57 bd 38 f6 01 3e
       -0.047342815 -0.044006422 -0.052715354 0.12691581
0003a0 a2 44 f1 bb e4 81 d5 bd 82 f5 e4 3c 25 2e 57 bd
       -0.007362918 -0.10425165 0.027949098 -0.05253424
0003b0 a8 39 f0 bd d0 eb 62 bd 38 40 f7 bd 86 f0 a7 3d
       -0.11729747 -0.05540067 -0.12072796 0.08200173
0003c0 92 7e 00 be 71 70 19 be fb 60 09 be 5f fe 83 bd
       -0.12548283 -0.14984299 -0.13415901 -0.06445002
0003d0 6e b5 1d 3d b6 a8 18 3d 3a 7f f5 bd 56 60 81 3d
       0.038503103 0.03727027 -0.11987157 0.06317203
0003e0 a6 75 cd 3d fb 30 a5 3d 3b 28 e4 bb fb 17 cc bd
       0.10032205 0.08065983 -0.0069628037 -0.099655114
0003f0 85 fd a6 3d 81 1b 45 3c 47 45 04 be a7 5a fd 3d
       0.08153824 0.012030483 -0.12917052 0.12370806

bias f4 [32]
000000 28 48 e8 bd 98 58 de 3d f9 8d 17 3e 44 6c a5 3c
       -0.11341888 0.10856742 0.14800252 0.020193227
000010 d3 c8 18 3e 7c c5 42 3c 89 ce 06 bd 8f 21 3d 3e
       0.14920358 0.011887904 -0.03291181 0.18469833
000020 c0 70 07 be 81 ec dc 3c 65 6a c4 3c 13 bd e4 3d
       -0.13226604 0.026968243 0.023976514 0.111688755
000030 20 24 12 be cd 44 12 bd 4b 30 08 3e d7 76 f6 3d
       -0.14271593 -0.035710145 0.13299672 0.12034386
000040 5f 1b 5d 3e 1c 91 88 3d 3d 45 bc bd 3f d7 9e bd
       0.21592472 0.066683024 -0.09192894 -0.07755899
000050 34 92 4a 3d 6f dc 22 3e 44 01 28 bd 61 70 24 3e
       0.049455836 0.15904401 -0.041016832 0.16058494
000060 a0 af 1f 3e 39 4f 89 bd 60 b9 11 3e e2 b6 a5 bd
       0.1559434 -0.06704564 0.14230871 -0.08091523
000070 b4 92 89 bd 42 55 dd bd a8 5d 78 bc cc 01 ec 3d
       -0.067174345 -0.10807277 -0.015159048 0.1152378

weight f4 [2, 32]
000000 d0 d7 7f 3d 61 d2 75 3e a7 c3 e7 3c 33 dc e0 3d
       0.062461674 0.24006034 0.028291536 0.109795
000010 21 90 a5 3d 1a 3f a9 bd 7f 11 11 be 3d 49 0d 3e
       0.08084131 -0.08263989 -0.1416683 0.1379747
000020 d7 45 59 be 2f 35 d5 bd 89 72 f7 3c 2f 28 59 3e
       -0.21218048 -0.104105346 0.030205982 0.21206735
000030 72 73 84 3d 6b ca c9 3c c5 73 11 3c f5 45 89 3d
       0.06467332 0.024632653 0.008877699 0.06702796
000040 52 f6 31 3e 4f 5d 4b bc 95 48 64 3d 7d f0 0e bb
       0.1737912 -0.012412383 0.055733282 -0.0021810823
000050 a1 93 05 3e 2c a4 1b 3c e3 54 90 bd 2a 83 78 3d
       0.13044597 0.009499591 -0.07047441 0.060671963
000060 16 a6 b2 3d a2 4c e8 bd ab 9d a7 3d d3 5d 07 bd
       0.08723085 -0.113427415 0.0818437 -0.033048462
000070 bb 34 ce bd 8c 77 b1 bd dc 7e c6 bd be 1f 9e 3d
       -0.10068651 -0.0866538 -0.09692165 0.07720898
000080 2b f6 0c 3d 7e 56 a4 3d 2e c2 aa 3d 9c c5 f2 bc
       0.03441445 0.080243096 0.08337818 -0.029635243
000090 e6 89 81 3d 9d 45 ed bc 61 be 07 be 42 bf 4b 3e
       0.0632513 -0.028963858 -0.13256218 0.19897178
0000a0 4a 29 45 be 85 76 02 be 9a 78 a4 3d c0 8e 2a 3e
       -0.19254032 -0.12740524 0.080308154 0.16656017
0000b0 4b 1f 7d 3c 97 60 24 be 65 c1 c6 3d 18 c4 21 3d
       0.015449355 -0.16052471 0.09704856 0.03949365
0000c0 86 bf 1a 3e 2c 13 8a 3d 0e 80 dc bd f6 39 c6 bd
       0.15112123 0.06741938 -0.10766612 -0.09679024
0000d0 d1 2f 3e bb 9c e9 0b 3e ef d6 af bc 0a 95 36 3e
       -0.00290202 0.13663334 -0.021464793 0.17830291
0000e0 cd f1 58 3c b0 19 31 bd 13 fb ce 3d 2e cf 69 bd
       0.013241244 -0.043237388 0.10106482 -0.057082348
0000f0 5c bd 6a 3d 89 e8 f6 bc 84 c0 52 3d 8f 33 1b 3e
       0.057309493 -0.030140178 0.05145313 0.15156387

bias f4 [2]
000000 26 09 72 3e 53 74 c8 3d
       0.23636302 0.09787812
